model_cnn.pth (torch, 434831 bytes, 8 tensors)

conv1.weight f4 [6, 3, 5, 5]
00000000: de49 29bd 1ce7 8c3d f23f 5c3e cdbe dd3d
00000010: 776b 2dbd b157 31bd 090a a1bb fc06 573c
00000020: 4575 1b3e fdfd 96bd 763b efbc ad32 4bbe
00000030: a33c 75be 9ea3 483d a754 693e ad5c eebc
00000040: 89ad 883b ee51 94bd 38e6 49be 02da cbbd
00000050: c48a 88bd 4a92 033e fd14 fd3c 5cd0 313e
00000060: 0423 ef39 b448 013e fbf4 5d3e 3932 693e
00000070: 794f 81bd 8cf5 8d3d 8d43 13bd 7037 d3bd
00000080: 3966 f1bd cab3 b73d 5517 7fbd abfc 0cbe
00000090: de1e babd 7171 8ebe 6849 063d 8251 543d
000000a0: e806 933d f9ae 7a3c 1105 0fbe c984 80be
000000b0: c72c 19be 56d9 f03a b815 8b3c d810 d33d
000000c0: 021f 0a3d 6d03 aa3d 1ec4 0d3c cefb 003e
000000d0: 1535 523e 7fba 56bb 0568 83bd a236 8e3d
000000e0: f422 0fbe 86d7 cbbd 9f7c 363d 471b fcbd
000000f0: f3e6 e7bd e3de 6fbe 2820 16be 2fa6 a43c
00000100: f8ae ef3d 5aa2 093d b540 6cbd 0c90 943a
00000110: c10e 22be b5a0 02be d6d8 fb3d f56d 253e
00000120: fe89 153e 716c 9e3d 61e2 e93d 7849 f73c
00000130: b039 fb3b ba3e 7ebd e8de 083c 993e 52bc
00000140: e456 9b3c c2d6 95bd 0152 89bd b0cd 7bbd
00000150: 4683 12be 9c87 3ebd 2546 ac3c 1c5e 09bd
00000160: 3fef cebd 6fa8 ed3c 18ed e43c c641 d5bd
00000170: ef9f dbbd 0edc 1d3d eb25 23bc 5e98 8bbd
00000180: cd00 d8bd 640d a33c 4b1a 0f3d da30 433d
00000190: e6f3 bbbd 710e 1cbe 068c 4ebd c8ce 9c3c
000001a0: cb4c 96bd 9ce8 18bd 4262 793c 4685 0cbe
000001b0: 8f7f 2c3d 758d fb3b 78cd b3bd d015 1abd
000001c0: 4196 0cbd aabd ddbd 5e3b 7dbd fbb4 56bd
000001d0: 2222 bfbd 23a4 2b3d 615d d1bd e86c c4bc
000001e0: 5c9f 8b3d 4a9f dd3a 386e 9abd 593b afbc
000001f0: ce5b 993d e810 f3bd 1a4c 8fbb 3885 a63d
00000200: 9280 d6bd a465 823c e77d 8ebd 5a8c a73d
00000210: 7bcb a73d 0b61 453c 7341 c2bc 6d7b dd3c
00000220: 4f72 c3bc 869f 613d ba0e 05be fb5e d8bd
00000230: e617 8ebd bc47 b7bd 9812 d0bd 7219 603d
00000240: d3f5 ffbd 3c80 14bd 142c 3d3d 1aea abbc
00000250: b754 78bd ab75 89bd 7840 75bd f9ab 17b9
00000260: 35f5 7a3d 3101 1d3e 7eb5 473d 819f 063e
00000270: d07e 293e 0edb e73d ed44 3f3e 550d ab3d
00000280: 39d6 453e 32ae dd3d 0384 693e 842f 553e
00000290: d4c6 4c3e e299 4239 ca9d 383d e827 b63d
000002a0: cdc3 013d e47d 6d3c 2477 b03d bdec babd
000002b0: b5f1 f4bc f148 c73d fc1f a93d 8673 a4bc
000002c0: abc9 e9bd c722 3ebd 1707 9bbd 8273 98bd
000002d0: 865e 7cbd 0284 1dbe bf81 17be 00f0 4fbe
000002e0: daa6 d3bd 68b6 433d c76b 16be 2a28 94be
000002f0: 1a6e 83be 2d7b 23be 2a3b e5bb 4247 21bc
00000300: a197 5dbe bbb5 3fbe dd4b d5bd 13d0 c23c
00000310: f40b 84bd 1c5c 19be 97dc 3ebd 604c 04be
00000320: adc8 cf3d ee0c 083e 1382 80bb 8b91 22bd
00000330: 6d6a 273d d4ad aa3c 99dc 4b3d 847e 92bc
00000340: db27 a9bd 8dea 73bd 0ce8 6e3d 0eb8 fe3b
00000350: 6d72 4cbe 3704 b4bd dfb9 babd 6d45 7f3e
00000360: bd97 ecbc f384 2fbe c26c c4bc 5d0a b83d
00000370: 5b87 513e cc1b dc3d f01e 8ebd c2b7 8cbd
00000380: c60b 553d a38a 9b3d 9c72 343d 8e23 8fbc
00000390: 9416 293c 2018 eabd 2338 e9bc 83be 9dbd
000003a0: 787b 93bc 53cd 8c3d 8963 31bc 6402 1f3d
000003b0: 0247 9cbb 884e 933c a25f 1ebd 7b0d 4abd
000003c0: 3002 b73d 54cb 433b 962f 82bd a133 99bd
000003d0: bb47 3bbb 31e6 063e 77e2 c43d 9b59 61bd
000003e0: f872 febd 9fff cbbd 573e 7ebe 0352 62bd
000003f0: 8cb2 2cbd 1413 d83b ffd8 483d 4f51 e9bc
-0.04133021 0.06880018 0.21508768 0.10827408 -0.042338815 -0.04329652 -0.0049145264 0.013124224
0.15181454 -0.07372663 -0.029203158 -0.1984355 -0.23948912 0.048984163 0.22786199 -0.029096926
0.0041710776 -0.07242189 -0.19716728 -0.09953691 -0.066670924 0.12848774 0.030893797 0.17364639
0.0004561172 0.1262539 0.21675484 0.22773065 -0.06313986 0.069316 -0.035953093 -0.10313308
-0.117870755 0.08969839 -0.06227811 -0.1376826 -0.09087919 -0.27820924 0.03278485 0.051835544
0.07179052 0.015300506 -0.13966776 -0.25101307 -0.14958487 0.0018375318 0.01697813 0.10305947
0.033720978 0.08301435 0.008652715 0.12596056 0.20528062 -0.003276497 -0.064163245 0.06944014
-0.13978177 -0.09953217 0.04455244 -0.1230989 -0.11323347 -0.23424868 -0.14660704 0.020098774
0.117032945 0.033602096 -0.057678897 0.0011334433 -0.1582594 -0.12756617 0.122972175 0.16155227
0.14603421 0.07735527 0.114201315 0.0301864 0.007666789 -0.06207154 0.008353926 -0.012832307
0.018962331 -0.073163524 -0.06705094 -0.061475456 -0.1430789 -0.046516046 0.021029541 -0.033537015
-0.10104226 0.02901098 0.027945086 -0.10412936 -0.10723864 0.03853994 -0.009957771 -0.06816171
-0.10547028 0.019903846 0.034937184 0.04765401 -0.09177379 -0.15239884 -0.050426506 0.01914157
-0.07338866 -0.03733121 0.01522118 -0.13722715 0.042113837 0.007676775 -0.087794244 -0.03761846
-0.03432298 -0.10827191 -0.061824195 -0.05241869 -0.09332682 0.04190458 -0.10222889 -0.023977712
0.06817505 0.0016908434 -0.07540554 -0.021390604 0.074882135 -0.11868459 -0.0043730857 0.08130878
-0.104737416 0.015917607 -0.06957608 0.08181067 0.08193108 0.012047063 -0.02371285 0.027036393
-0.023858218 0.055083774 -0.12993899 -0.10564991 -0.06938152 -0.08949229 -0.101597965 0.054711767
-0.12498059 -0.036255106 0.046184614 -0.020985652 -0.060627665 -0.067118965 -0.059875935 -0.00014464547
0.061269004 0.15332486 0.04875707 0.13146783 0.16552281 0.11321078 0.18678637 0.08352152
0.1932 0.10824241 0.22804265 0.20818907 0.19997722 0.00018558608 0.045072354 0.0889433
0.03168087 0.014495347 0.08616474 -0.091271855 -0.029900411 0.09730709 0.08258054 -0.020074617
-0.11415418 -0.046419885 -0.07569712 -0.07443906 -0.061613582 -0.15382388 -0.14795588 -0.20306396
-0.10334559 0.047781378 -0.14689551 -0.28936893 -0.25669938 -0.15964957 -0.0069955783 -0.009843649
-0.21639873 -0.18721668 -0.104148604 0.023780858 -0.064475924 -0.14976543 -0.04659709 -0.1291976
0.10145698 0.13286182 -0.003921756 -0.03968958 0.04087298 0.02083484 0.049770925 -0.017882593
-0.08259555 -0.059549857 0.058326766 0.007773406 -0.19965525 -0.087898664 -0.09117483 0.24928828
-0.028880948 -0.1714056 -0.023977641 0.08986352 0.2046179 0.10747489 -0.069394946 -0.068709865
0.05201318 0.07594802 0.044054613 -0.017473008 0.010320324 -0.11430383 -0.02846915 -0.07702353
-0.01800321 0.068751 -0.010826954 0.03882064 -0.004769207 0.017981783 -0.03866542 -0.049329262
0.08935964 0.0029875832 -0.063567325 -0.074805506 -0.002857669 0.13173749 0.09613507 -0.055017095
-0.12424272 -0.09960865 -0.24828468 -0.055253994 -0.042162463 0.006594071 0.04903507 -0.028481154

conv1.bias f4 [6]
00000000: 098b 453d 570c 03be 7e57 1a3e b497 02be
00000010: 5a5a 26be f4f5 c339
0.048228297 -0.12797676 0.15072438 -0.12753183 -0.16245404 0.00037376548

conv2.weight f4 [16, 6, 5, 5]
00000000: de6c 97bc 7f52 1a3e 31ca 6c3e 670b 2b3e
00000010: 1740 0e3e 2622 1c3e dcf1 183e 584d b93d
00000020: 0697 343d 132f b63d cef6 523d 0d88 043e
00000030: 93a4 753e f900 603e 0a2f 4c3e f7ab c33c
00000040: 2dd4 063e 3706 f03d 2acf 883d 374e 543d
00000050: c79b 7cbd a3cf 013c da1d cf3d 20f4 bc3d
00000060: 1bea 483e 941a 7bbd 454b c6bb 0a5c 7c3d
00000070: bbc9 8d3b a46c 91bd 59a6 90bd 8bee 233d
00000080: 5764 3bbd 8129 4a3d ed48 9c3c fde4 3fbd
00000090: 93bd adbc 1bbc 323d 3fcd 1c3d 723f dcbc
000000a0: a000 bc3c 1251 c43c 1fbe a1bc 4cad 1ebd
000000b0: d333 c2bc 3c36 843b 1164 3ebd 86ef 2d3d
000000c0: a051 e8bc 2fb8 9f3d 325f 193e ce81 173e
000000d0: 0629 77bd 6d40 c33d 8aab 963c eaec 0bbd
000000e0: 274a 10be 93a3 87be 9219 44be dc6f 8d3d
000000f0: e7b9 8ebe f295 d9be ea76 b1be 7971 87be
00000100: f4d9 acbd 8c99 58be 07a0 dcbe 251e 92be
00000110: 7cb9 71be d785 8cbd 76b3 4bbe 17ed 1bbe
00000120: 76b7 14be 7748 82be c31e 52be 7d7d da3c
00000130: 41fe 92bc 566e 02bd 0ce3 aabd 7adb 863d
00000140: 328c a1bd f226 06be 5d49 4abe 0724 c0bd
00000150: c06c a63d 168c 6c3d 7fc8 9f3d adc8 883d
00000160: 20bc 1a3e a32f 953d ba43 243e 2950 ca3d
00000170: 6b57 c33d 1c44 a63d 9e72 3b3d 118f 353e
00000180: 513f 6fbc b4cc a03c 2d42 a23c 619c cebc
00000190: 9f16 8f3c 98a3 00be 296c e7bd 438a c83c
000001a0: 0a9d d63d 4462 373b b808 07bc 03dc 1ebd
000001b0: 7867 e1bc 2c8b ec3c 8577 66bd b0c9 13bd
000001c0: c1bb 37bc 2617 02be bdbd 933b 9d58 9a3c
000001d0: 2eec 17be f0fb 95bd 6819 cbbd ed93 bc3b
000001e0: c7dd 773d 46cb 943c 0e3a 9fbc 73ef bf3d
000001f0: bfe9 16bd d956 5e3d 4f47 0ebc aaee 9dbc
00000200: 917c 6fbd 3d9b 893d 9c3b 1d3d 4f64 40be
00000210: 7f41 b3bd 7fdd 2dbc bd14 28bd 46a1 edbc
00000220: 2565 b83d a635 273d eb18 c4bd dd65 1cbe
00000230: c2db 783d 1f3c 533d 3ce3 8a3d ce4c e6bd
00000240: e7e1 d5bd e82a 05bd 7633 403c 8b72 12bd
00000250: b31f bb3d b14a 36bd 503e 453e cecb 383d
00000260: 4181 9e3c ed06 8c3c e67b 073e 9b55 533e
00000270: 38e1 ff3d d89a b83d 6190 be3d 0277 013e
00000280: 535d 4d3e f080 2a3e 0e50 b53d fc7d 063e
00000290: 48a0 0d3e 07c3 b13d 4ae0 683e 68c7 2a3e
000002a0: 285a f53d 8f26 783e 8a54 483e 6000 80bb
000002b0: af44 0fbe 110b b8bd 5e21 0ebd e8ac 563d
000002c0: 38d0 85bd f677 62bd 43fe f6bc 5186 63bd
000002d0: 7432 1fbb 48d3 313d 30f0 97bd 2966 b3bd
000002e0: 60f8 85bc 231d 6fbd 3e8f 423d 55a0 973c
000002f0: 15f4 c03c 513c 85bd f054 f73b 2361 03bd
00000300: 1198 803c c8ec 54bd 2561 7abc 7a23 c13c
00000310: 2e1a f3bc 48ae 87bd e92d 933d db7e 013d
00000320: b59e e83d 91da c93c 791a bebd 8db0 80bc
00000330: 60c9 38be 2ce2 643e caf3 833e 6a2f 373e
00000340: c5ac bd3d a84e c23d ae4e e83d 18a9 b83d
00000350: 5f1b 083e 143d 3a3e 264d 9b3d 8339 9bbd
00000360: 5e49 f4bd 848b b5bd 6066 7dbd 31e1 d6bd
00000370: f54f 75be ff94 80be 1a05 c9be 0c29 9dbe
00000380: 0e18 12be d91d 423d e3d0 153d 67d1 aa3d
00000390: 455f 5fbc ce99 233d 4388 58bc 44ef 89bc
000003a0: 1dd7 823d 67a1 b0bd e9da 963d e4ea fabb
000003b0: df89 16bc 4dbf bf3d 5c53 143d f619 9b3d
000003c0: d68b d73a 43d8 083d 35a5 643d 3e75 b53c
000003d0: 2fa7 843c 0876 e1bd ac53 4cbe 6e8f 51be
000003e0: 2d2b dabd 1721 843c 3a8f 74bc 9d35 a33b
000003f0: 87fb 083d de16 61bb d818 0a3e 005d 88b9
-0.01848453 0.15070532 0.23124005 0.16703568 0.13891636 0.15247402 0.14936012 0.09047955
0.04408934 0.088956974 0.051504903 0.12942524 0.23988561 0.21875371 0.19939819 0.02388571
0.13166876 0.117199354 0.066801384 0.051832404 -0.061672 0.00792304 0.101131156 0.09226251
0.19620554 -0.061304644 -0.0060514533 0.061611213 0.0043270267 -0.071008 -0.07062978 0.040022414
-0.04574999 0.049355987 0.019077742 -0.04684924 -0.02120856 0.043636423 0.038281675 -0.026885722
0.022949517 0.023964439 -0.019743977 -0.038739488 -0.023706352 0.0040347856 -0.04648215 0.042464755
-0.028359234 0.07798802 0.1497772 0.1479561 -0.060341857 0.095337726 0.018392343 -0.034161486
-0.14090787 -0.26491985 -0.1915038 0.06906101 -0.27876207 -0.42497212 -0.34661037 -0.2645376
-0.08440009 -0.21152323 -0.4309084 -0.28538623 -0.23605913 -0.068614654 -0.19892678 -0.15227161
-0.1452311 -0.2544591 -0.20519547 0.026671166 -0.017943503 -0.031843506 -0.08344087 0.065848306
-0.07888068 -0.13100794 -0.19754548 -0.09381872 0.08126211 0.057750784 0.078019135 0.06678901
0.15110826 0.072844766 0.1604146 0.098785706 0.09538158 0.081184596 0.045763604 0.17730357
-0.014602498 0.01962886 0.019806946 -0.025221052 0.017466841 -0.12562406 -0.11299927 0.02447999
0.104791716 0.0027982155 -0.008241825 -0.03878404 -0.027515158 0.028874956 -0.056266326 -0.036081016
-0.011214198 -0.12704143 0.0045087026 0.018841082 -0.14836189 -0.07323444 -0.09916955 0.005754939
0.060514238 0.018163335 -0.019436862 0.09371843 -0.03684401 0.054282043 -0.0086839935 -0.019278843
-0.058468405 0.067190625 0.038386926 -0.18788265 -0.08752727 -0.010611891 -0.041035403 -0.029007565
0.09003667 0.040822648 -0.09575065 -0.15273233 0.060756452 0.051571008 0.06781623 -0.11245118
-0.10443478 -0.03251162 0.011731019 -0.035753768 0.091369055 -0.044504825 0.19262052 0.04511624
0.019348742 0.017093146 0.13230857 0.20638125 0.12494129 0.09013909 0.09304882 0.12643054
0.20055132 0.16650748 0.0885316 0.13133997 0.13830674 0.08679777 0.2274181 0.1667763
0.119800866 0.24233459 0.19563499 -0.0039062947 -0.13991044 -0.08986486 -0.03469979 0.05241099
-0.06533855 -0.055290185 -0.030150538 -0.055548016 -0.0024291547 0.043414384 -0.07418859 -0.0875972
-0.016353786 -0.058377396 0.047499888 0.01850907 0.023553887 -0.06505645 0.007547967 -0.03207506
0.01569751 -0.051983625 -0.01528195 0.023576487 -0.02967557 -0.066250384 0.07186491 0.03161512
0.11358396 0.024640353 -0.09282393 -0.015709186 -0.18045568 0.22351903 0.25771934 0.17889181
0.09261469 0.09487659 0.11343132 0.09016627 0.13291691 0.18187362 0.07583074 -0.07579329
-0.11928056 -0.08864501 -0.06186521 -0.104921706 -0.23956282 -0.25113675 -0.39261705 -0.3069538
-0.14266989 0.047391746 0.036576163 0.083407216 -0.013633554 0.0399416 -0.013216081 -0.016837724
0.06388686 -0.08624535 0.073659725 -0.0076573957 -0.0091881445 0.093626596 0.03621231 0.07573311
0.0016444873 0.03340937 0.055821616 0.022150632 0.016193 -0.11008841 -0.19953793 -0.2046487
-0.106527664 0.01612906 -0.014926726 0.0049807564 0.033443 -0.0034345905 0.1348604 -0.00026009232

conv2.bias f4 [16]
00000000: c6b3 8e3d 3be5 613d 640f 9e3d 7f21 ed3d
00000010: 665a f2bd 79a4 c63d 5dc7 fdbd cd44 d4be
00000020: 95e6 69be bc06 9c3d 0a01 933e f715 073e
00000030: d163 efbd e337 d53c 98ee a43e 99d6 523e
0.06967883 0.05515025 0.07717779 0.115786545 -0.118336484 0.096993394 -0.12391541 -0.4145874
-0.22841866 0.07618472 0.2871173 0.13191973 -0.1168896 0.026027625 0.32213283 0.20589675

fc1.weight f4 [256, 400]
00000000: ad4c 153b 8aa5 d6bc 7575 b93c 2e6f 0dbd
00000010: d84d 61bd 65a4 213d f830 2c3d 5a48 85bb
00000020: c753 243c 3052 efbc 27d3 9fbc d332 fcbc
00000030: e729 33bb d7d1 8dbc 0c42 883c 9085 1b3d
00000040: f3be 26bd 6177 45bc ffe3 9fbc 82d6 79bc
00000050: 3311 103c 33aa 0abc 7530 49bd 1ce7 243d
00000060: 9152 4d3c e63b b1bd 02e8 1c3b bfff adbc
00000070: fc29 4a3c df02 b83c b5d7 363a 2286 48bd
00000080: 87e3 28bc 5478 253d ad13 b33c 0132 76bc
00000090: a070 e63c e3e6 8dbc 0e5a 2d3d 69a2 c43c
000000a0: 2220 3dbd 8bed 86bc 86c1 e3bb c5d2 2dbd
000000b0: 60b4 34bd 28bb 3f3d 44ac 82bd 4f99 11bd
000000c0: b3ec 2dbd 0ecf a7bb 41b8 e7bc e75e 85bb
000000d0: a4db a3bd d6df 42bd 6078 a1bd fbbd adbc
000000e0: 33d4 8cbb 0bf9 43bb 7538 45bd 20e2 9c3b
000000f0: 4294 16bb 35a5 63bd 4532 52bd ef24 8fbd
00000100: 9563 2d3c c2a7 e7ba 791f ac3b 0235 79bc
00000110: 08e9 03bd d8ba a2bd 7833 93bd 6e79 b1bb
00000120: 48b8 b9bc 37ae 3fbd d23b 39bd 8b17 80bd
00000130: e52a 91bd 0ff3 b6bc 3794 2fbc e155 8fbc
00000140: a41b 86bd a7a3 243c 004b 743b 8022 3bbd
00000150: 9339 913c 9135 15bc 9d79 e4bc f029 9a3c
00000160: 40c3 d8bc 0849 1d3d a1a8 23bd 6d42 36bd
00000170: da78 04bc 3880 f3bc 107b b33c d76d d2bc
00000180: da91 c93c 2745 b63b 078d 4b3c 5e36 c23b
00000190: 84ca 18bd 68b8 23bc 4e64 c03a 2b86 8ebc
000001a0: 50d7 a1bd d25c b13a 99ba efbb 1aad 3bbc
000001b0: acf0 9ebd 2b7b 86bd 292c 42bc eda3 16bd
000001c0: 5a92 d8bc a77e 2fbc 5787 45bd 477f b23a
000001d0: 910c 27bd ad07 70bd e705 21bc 7dbe 88bd
000001e0: 90c2 8f3c 274a 413c 37e0 7fbd 018a 08bd
000001f0: b82d a1bc 9449 813c be3b 1b3d 9115 86bc
00000200: a06d 09bc 4928 963b 7059 31bd 2821 4cbd
00000210: f0a0 1cbd 5490 68bc 2721 263c 289e 66bd
00000220: 3568 4abd 6684 09bb 1c93 38bd 5737 01bd
00000230: d4c1 e339 c414 b3bc 87c2 c8bb 5ba5 5fbd
00000240: 7aa5 f6bc 05d1 90bd 25c2 42bd ead6 313d
00000250: 67a7 ffbb 4d4a 89bc 9318 443d cf29 0cbd
00000260: 4867 0e3d 4d39 48bc f3c8 4a3d f81c 1b3d
00000270: d316 a3bc c383 3ebd 2a0b 033d d3e1 5cbc
00000280: 2dab 6a3c 5aba 3cbc dae5 383d 670f d0bc
00000290: b34f f53c b7ca 0abd b3b2 f93b 9306 783c
000002a0: 50eb 203d 47ee f7bc 354b 15bd b7ac 943c
000002b0: bd2d 113d 4d7b c53c 2a3c 97bc 8333 49bd
000002c0: 558c 5bbd 8a33 1fbd fb8e 50bc 1697 eb3b
000002d0: 2e14 4bbd 10c0 c33c 3317 19bd 1993 31bc
000002e0: 910e 0ebd 68cf 133d 58bb 283d 9a56 b8bc
000002f0: 3028 e7bc fdc8 5abc f628 823c b51b 9938
00000300: 62a0 20bd ac7e 18bd b2df b5bc eaf0 c2bc
00000310: 4d2a a73b 6c35 42bd 5c6e 203b 2af5 c7bb
00000320: 65fd 1cbc 844d c93b 3bc4 97bc acf6 c03b
00000330: 6bba 43bd b82e 393c cc16 aebc 9a79 87bd
00000340: 8af5 a0bc f7d2 6cbd 11ec 9fbd d6a9 fbbc
00000350: 81ef 3fbd 2733 53bd 48a4 9cbd b5a5 103c
00000360: ead5 063c 9b71 58bd c57e dbbc 59c0 5dbc
00000370: 613b 75bd ac8e 3ebd 1a71 f0bc ada7 f0bc
00000380: ba3e 4fbc 3c1a b9bb 05b3 103c 07bc 4fbd
00000390: ddac 2abd caf2 8abc 9429 56bd 7ddb 8ebd
000003a0: c182 bdbc 68d5 fd3b d6ce 11bd e264 9dbd
000003b0: b700 f4bc 7f43 62bc 05a6 133d 3c45 23bd
000003c0: 1f54 78ba 39ef 85bd e2c9 80bd 3836 15bc
000003d0: 9b55 3fbd 8248 f6bc 5118 863c 4500 8f3b
000003e0: 2da8 913c fa5a 493c 8748 83bd 6a57 59bc
000003f0: 1e0e 7ebd 08d2 533c aa72 34bd b224 37bc
0.0022781298 -0.026201982 0.022639016 -0.034529857 -0.05500588 0.03946342 0.042038888 -0.004067463
0.01002974 -0.029213995 -0.019509865 -0.030785954 -0.0027338208 -0.017311973 0.016633056 0.037969172
-0.040709447 -0.012052388 -0.019517897 -0.015248897 0.008793163 -0.00846343 -0.049118478 0.040259466
0.012531892 -0.08654003 0.0023941998 -0.021240113 0.012339111 0.022462307 0.0006974892 -0.048956044
-0.010308153 0.040397957 0.021859968 -0.01502657 0.028129876 -0.01732201 0.04232221 0.024003224
-0.046173222 -0.016470691 -0.00695056 -0.042437334 -0.04411733 0.046809345 -0.06380513 -0.035546597
-0.042462062 -0.0051211184 -0.028286101 -0.004070151 -0.080008775 -0.047576748 -0.07884288 -0.021208754
-0.004297757 -0.002990308 -0.048149545 0.0047876984 -0.0022976552 -0.055577476 -0.051317472 -0.069894664
0.010582824 -0.0017673897 0.0052527753 -0.015210392 -0.032204658 -0.07945794 -0.07187551 -0.005416087
-0.02267088 -0.046797004 -0.045223065 -0.062544905 -0.070882596 -0.022332696 -0.0107164895 -0.017497005
-0.06548241 0.010048783 0.0037276149 -0.0456872 0.017727649 -0.0091070095 -0.027890021 0.018818825
-0.02646029 0.038399726 -0.03995574 -0.044496942 -0.008085454 -0.029724225 0.021909267 -0.025687141
0.02460568 0.005562443 0.01242376 0.005926891 -0.03730251 -0.009992696 0.0014678331 -0.01739796
-0.07902396 0.0013531691 -0.0073159453 -0.011454845 -0.07760748 -0.06566461 -0.011851349 -0.036777426
-0.026436973 -0.010711349 -0.048224773 0.0013618254 -0.04078347 -0.05860107 -0.009828067 -0.06676958
0.01754883 0.011797464 -0.062469687 -0.033334736 -0.01967512 0.015782155 0.03789877 -0.016367706
-0.008387953 0.004582439 -0.043298185 -0.049836308 -0.03823942 -0.014194567 0.01013974 -0.056303173
-0.049415786 -0.0020983457 -0.04506217 -0.031546917 0.00043441227 -0.021860488 -0.006126705 -0.054601055
-0.030108202 -0.07071117 -0.047548432 0.04341785 -0.0078019383 -0.016759062 0.047875 -0.03421956
0.034766465 -0.012220693 0.049508046 0.037869424 -0.019908344 -0.046512377 0.03199307 -0.013481575
0.014323038 -0.011519039 0.04514108 -0.02539797 0.02994523 -0.03388473 0.0076201796 0.015138286
0.03928691 -0.030264987 -0.036448676 0.018148763 0.03544401 0.024106646 -0.018461306 -0.04912139
-0.053600628 -0.03886751 -0.012729402 0.0071896417 -0.04957979 0.023895293 -0.03737564 -0.0108382935
-0.03468186 0.03608647 0.04119429 -0.022502232 -0.028217405 -0.013353583 0.015888672 7.300769e-05
-0.039215453 -0.03723018 -0.022201393 -0.023796517 0.005101478 -0.04741423 0.0024479842 -0.006102224
-0.009581898 0.006143274 -0.018526187 0.0058887806 -0.047785204 0.0113026425 -0.021251105 -0.066149905
-0.019648332 -0.05781838 -0.07808698 -0.030720633 -0.046859268 -0.051562455 -0.07648522 0.00882857
0.008229712 -0.052842718 -0.026793847 -0.013534629 -0.05987108 -0.04652278 -0.029350806 -0.029376829
-0.0126492325 -0.0056488793 0.008831744 -0.050716426 -0.04166876 -0.016961474 -0.052285746 -0.06975458
-0.023133637 0.0077463873 -0.035597645 -0.076852575 -0.029785497 -0.013810038 0.036047 -0.03986095
-0.0009472984 -0.06539769 -0.06288506 -0.009107165 -0.0467125 -0.030063871 0.016369017 0.004364046
0.017780388 0.012289757 -0.06410318 -0.01326547 -0.062025182 0.012928493 -0.044054665 -0.011178182

fc1.bias f4 [256]
00000000: 64b6 89bd 57b9 8e3e 2883 9cbb cf6b 453e
00000010: 897f 613c c6ee fd3e 846f 11bd 488b 3dbd
00000020: 89d5 b8bd c5d9 8fbd 79c6 76bb 79fd ef3d
00000030: efdf 2fbd c57e 2bbb 1795 5abe 2c53 c8be
00000040: 68a7 a03b 7a6c 9a3d 89f1 06bd 5cca f43b
00000050: 25e7 b93d 0212 663c 7509 1c3e 3d3a 92bc
00000060: 743d d7bb b7e7 b53d 1338 7cbd ab1e 9bbd
00000070: f8ee 52bd d2fd 133e aff0 77bd a36a b73e
00000080: 2656 1a3f 3d5c 6dbd dc1f 62bd 4c04 e2bb
00000090: 63a9 ac3d 88b8 26bc ef9d 07bd 5f66 5b3e
000000a0: 1c14 df3e 8249 963e f6d2 7fbe 4bb9 c6bb
000000b0: ce17 e33e 3e12 923a 3986 943e c5ce ea3e
000000c0: 50bd bd3d 9583 8fbd 1212 3cbe 7173 ab3e
000000d0: 350f 4d3e d1fc d83c f23a 26bb 4b6d a33e
000000e0: 699c 13bd 8521 95bd 3b70 2b3f 6f27 aa3e
000000f0: 2a0b e33c 1b3a 153e 65df 243d 2632 173e
00000100: 78e6 8d3e 671b b9bc f4f1 113d 6a92 9d3e
00000110: d11d 413c ae76 e1bc f46c 703d 9c02 cd3d
00000120: 7753 a5be e644 5b3d 4018 913c aa04 f53e
00000130: cdfc 013e 4fb7 07bd 7a4d 4a3e d406 75bd
00000140: 168f 77bd b839 e0bc cbf5 82bd 49c7 433e
00000150: e444 f9bc 77f6 a4bb 0295 973e b21a 6c3c
00000160: ff0c 943e 6031 3abe 2eb3 1b3f a0be 6ebd
00000170: f6c8 35bd e28e 2f3e ceb6 72be 3152 0f3f
00000180: d730 81bd 2fdc 32bd ec0e 4d3d 15cb a2bb
00000190: 95d3 883d 5325 68bd f2c3 dd3c 3fc5 973e
000001a0: b1cc ad3d 2ade e7bc b56a 9b3e 3805 b13e
000001b0: e4c0 163e cf97 a0bc 4e85 62b8 383a 083e
000001c0: d852 2dbe cb81 58bd f042 68bd 9451 3c3e
000001d0: d368 573e 664c 023f a990 233e 5005 48bc
000001e0: 2bc3 51bd 42a5 50bd 04f5 dbbd 5127 eebc
000001f0: 8c22 78be 95c1 1c3e ad51 6c3b ef4f 49be
00000200: 2af6 8f3b 4e2e 01bc 2997 3f3e 73a3 5dbd
00000210: 651e 863d 8881 0bba e6f7 ea3d dca8 52bd
00000220: 8319 99bd 31e7 00bd d039 38be c5a5 a4bd
00000230: 999d 8cbd 4c07 d93d 0fc1 b43e a000 e33d
00000240: ce31 ae3e c2fa 31bd f3d9 6bbd c46f 5dbd
00000250: 632f 933e b621 35be 9148 5d3e f33b 1bbb
00000260: 8af4 d6bb 37f5 883e 26ad 473d e8fd 183e
00000270: fe31 ae3b f6a6 11bd e8c2 8ebd 3446 5dbd
00000280: d532 b63e 3c19 b0bd c44d 093e e187 47bd
00000290: eada 433e 4145 7fbd 135f d73d 2653 5dbe
000002a0: 8d8c fd3d baa2 003e 2d46 99bd 306f bf3a
000002b0: f8f5 d4bd 0adb 57be 66ef 6bbb 7a67 b53d
000002c0: 5e34 30bd 5635 f9bd e22d 68be 1d5a 81bd
000002d0: 7f5f ad3d e135 64bd dae3 0dbd 1aa5 87be
000002e0: d360 853e 2b66 d23e 638b 3cbd 4b0b 53bc
000002f0: 3e86 17be e003 823e a31b 203e 2f56 263e
00000300: d38f 17bb 9b97 103f b471 82bd 5903 223e
00000310: 8b1a 39bd 2ca5 be3e 5303 88bd 64da 2bbb
00000320: e826 7cbd eac8 583e e68a 953e 554a 8b3d
00000330: f87a 92bd 5b8e 8b3e 0296 e4bd d747 dc3e
00000340: 8980 27be 37dc 99bd 2187 4cbd b4e8 083d
00000350: 195b dfbc fad7 893e c32c 003f 5ec8 9cbd
00000360: 9f05 77bd 8a5c 923e b83a be3e 61c2 34bd
00000370: 8212 edbd 1763 0dbb 79a8 11bd 4d1a 12bb
00000380: 289e 143f b6d3 193e 43c7 57be a3df 54be
00000390: 78af 153f 84fb fd3e 89cb 39bd d2ce fabb
000003a0: 7f22 153f 0bdf 4cbe 79d6 26bc 57cc 173e
000003b0: 42de f53d c4d8 b73e 666d b33d c905 0abd
000003c0: bf16 3c3e b190 3b3e dc37 033d 1201 c43d
000003d0: 3363 a4bd 5a3e cbbd 7282 98bc dacc dbbd
000003e0: 2c40 373e 6b0c aebd 748e bf3e b4b3 a7bc
000003f0: bc5f 5a3c 3d8f 9b3e 990d 3dbd d81c 123e
-0.067242414 0.27875778 -0.004776377 0.19279407 0.013763317 0.49596232 -0.03550674 -0.046275407
-0.090251036 -0.07023958 -0.003765492 0.11718268 -0.04293817 -0.002616809 -0.21345936 -0.39125955
0.004902769 0.075402215 -0.03294519 0.007470412 0.090772904 0.014042379 0.15237983 -0.017850036
-0.006568605 0.08882087 -0.061576914 -0.07574209 -0.05149743 0.14452294 -0.060532268 0.35823545
0.602877 -0.057949293 -0.055206165 -0.006897485 0.084307455 -0.010175832 -0.0331096 0.2142577
0.4357003 0.29352957 -0.24982819 -0.006064569 0.443541 0.0011144353 0.29008654 0.45860878
0.09264624 -0.07007519 -0.18366268 0.33486512 0.20025332 0.02648774 -0.0025364724 0.3191932
-0.036037836 -0.07281784 0.66968125 0.3323321 0.027715284 0.14572947 0.040252108 0.14765224
0.27714896 -0.022596074 0.035631135 0.30775768 0.011786894 -0.027522411 0.058697656 0.10010263
-0.3229024 0.053532504 0.017711759 0.4785512 0.12694092 -0.0331338 0.19756117 -0.059820965
-0.06043919 -0.027371272 -0.063945375 0.1911899 -0.030428357 -0.0050342637 0.2960587 0.0144106615
0.28916165 -0.18182898 0.6082028 -0.058287263 -0.044381104 0.17144349 -0.23702547 0.5598479
-0.063081436 -0.043667015 0.05006306 -0.004968057 0.06680981 -0.05667622 0.027070973 0.29642674
0.084863074 -0.028304178 0.30354849 0.34574294 0.1472202 -0.019603638 -5.400675e-05 0.13303459
-0.16926134 -0.052858155 -0.05670446 0.18390495 0.21036081 0.50897825 0.15973152 -0.012208298
-0.051211517 -0.050938852 -0.107400924 -0.029071482 -0.24231929 0.1530822 0.0036059425 -0.19659398
0.0043933587 -0.007884575 0.18710007 -0.054110955 0.06548766 -0.0005321731 0.11473064 -0.051430568
-0.07475569 -0.03147048 -0.17990804 -0.080394305 -0.06865997 0.10597095 0.35303542 0.110841036
0.34022373 -0.043452032 -0.0575809 -0.054061666 0.2874709 -0.17688641 0.21609713 -0.0023686856
-0.006559913 0.26749584 0.04874911 0.14940608 0.005316018 -0.035559617 -0.06970769 -0.05402203
0.35585657 -0.08598563 0.13408571 -0.04871357 0.19126478 -0.062321905 0.10516181 -0.2161375
0.123803236 0.12562075 -0.07484088 0.001460528 -0.10398477 -0.2107965 -0.0036000847 0.08857627
-0.04301869 -0.12168376 -0.22673753 -0.06316016 0.0846548 -0.055715445 -0.034641124 -0.2649315
0.26050434 0.41093573 -0.046031367 -0.01288111 -0.14797303 0.2539358 0.15635543 0.16243814
-0.0023126497 0.5648133 -0.063693434 0.1582159 -0.04519133 0.3723539 -0.06641259 -0.00262227
-0.06156054 0.21170393 0.29207534 0.06801287 -0.07152361 0.27257046 -0.11161424 0.4302356
-0.16357626 -0.07512706 -0.049933556 0.033425048 -0.027265118 0.2692259 0.500683 -0.076554045
-0.060308095 0.28586227 0.37154174 -0.044130687 -0.11575796 -0.0021573955 -0.03556106 -0.0022293509
0.5805383 0.15022168 -0.21072106 -0.20788436 0.5847087 0.49605954 -0.045360122 -0.0076540494
0.5825576 -0.20006959 -0.01018297 0.14824043 0.12005283 0.35907567 0.087611005 -0.033696923
0.18368052 0.18316914 0.032035694 0.09570517 -0.08026733 -0.09924002 -0.018616889 -0.10732432
0.17895573 -0.08498462 0.3741337 -0.020471431 0.013328489 0.3038272 -0.046155546 0.14268816

fc2.weight f4 [10, 256]
00000000: 43e8 df3c 30e1 fcbd 7f35 25bd 67b0 9bbe
00000010: 8052 083e d13f 23bd 3843 24bd 4358 03bd
00000020: 6fda 3e3b f282 66bd 0d8c b1bc 5a59 d63d
00000030: 15e3 a4bd 121e 403c fadd 3c3d ca5f a63d
00000040: a18c eabc b0e1 24be a506 01bd ba0d 3dbb
00000050: 114b 023e 1be6 0c3c e6cf 483e 8c18 81be
00000060: e7a1 8f3e cce7 863c a353 a3bc 4722 efbc
00000070: 422f 7cbc ff0a f63d 0043 be3c cd35 02bd
00000080: c310 80be e0f1 fabc 8a0e 553c 05dc 4abd
00000090: 6f68 e63c 95bc b13c f4ee b53c cb79 d2bd
000000a0: 306e 873e b8d8 62be 681b e33d 519f 453e
000000b0: af60 48be 93c5 a03d fac4 9b3d 2f7f 41be
000000c0: 662a 183d 212f 8cbd 9029 b73d 12ea 67be
000000d0: a18e 24be e0b5 b0bd b5ac 823d 1eed 19be
000000e0: 8f0c 203e 9280 883d d2ac aebe 6bc0 b83d
000000f0: f5aa dd3c c27f 5ebe 5c29 5dbe 406c 21bd
00000100: e30f d83d 067a f2ba ea05 f03d fdce 2dbe
00000110: fb2a 11be 300a 3ebd 8765 c9bd ff6d 0dbe
00000120: 41ee bd3c e6ff 773d c91b d53d 60dc 373e
00000130: 782c 0f3e d039 ea3c a2dc dd3d e33f 25bd
00000140: 0aef a7bc 3c42 f33b 35d2 06bd 6fa1 1cbe
00000150: ee2a 83bc 187e 0bbd f4a3 91be 9a17 81bb
00000160: 69d7 2dbb f9a5 643e ed6d 47be d808 13bc
00000170: 9e07 1ebd 8628 f0bd 7dfe 973d 728b b5be
00000180: 063f bdbc 12e5 923d 5991 653d 7ea5 67bc
00000190: bf1f 0d3e 2932 dbbc f9d8 653c 342f 5bbe
000001a0: 5770 e63d a215 8b3d 45fb 92be 7a47 bdbd
000001b0: 39dc 8e3d d0ed 84bd d249 6ebc 1693 a0be
000001c0: cd8f 10be 07f9 42bc 1021 d8bc 7da8 733d
000001d0: 5ddd 29be e8bf 89be 124c 813d 545a 91bb
000001e0: 1c84 11bc dbfb 603d 3f25 ac3d 12b6 06bd
000001f0: 232e e43d 4bd7 70bc b840 cebc b0f5 cdbd
00000200: e8c6 c33d 3935 aabc b0fd 26be 8df9 b3bd
00000210: 1bd2 78bc fa81 cfbc e007 ed3c 481f 663c
00000220: bae5 7fbd 6d9b 3dbd 11ad 253e f6b6 a8bc
00000230: fd0e cbbd b58e 23be c1e3 3cbe 1c47 debc
00000240: 01f3 9bbd e812 28bd bfee a1bc 36dd ec3c
00000250: 6191 23bd baa3 b03d 54ea 993d a78a 473c
00000260: b477 753c 3b34 aebd a615 bd3d 10c3 d3bc
00000270: 29b8 d437 7ac2 30bd d117 a83c da25 8dbd
00000280: 208b dc3d cde9 fb3b cedc ac3d 9005 2dbc
00000290: db00 8c3d 434c 3abd 29e9 27be 02d9 32bd
000002a0: 280e 1bbd 5697 1c3e bf85 de3b 91a9 36bd
000002b0: 4f67 843c 5e38 42bd f84b 2abd 010c 743d
000002c0: 653a 19bd d210 2d3e abbf bf3c 82f7 943d
000002d0: 3d1e 9c3d 55ee 533d e210 b2bd eb55 b7bd
000002e0: 72e1 02bc 4154 08be 9e3f 05bc 7127 97bc
000002f0: ee2e e73d a5fe 72bd b214 d13d 6a23 9c3d
00000300: 198f 56bd 8cf3 8dbe 3a69 5f3b d57f eabd
00000310: 3134 b0bd 3fb5 11bd d56f 7d3c af89 95bd
00000320: fe77 0cbc 268b 23be 4c35 fabc 870e 663e
00000330: dce6 43bd 7496 df3d 8140 9dbc 3c7a d33d
00000340: 27e6 a83d 53da c83d a585 66bc a598 33be
00000350: 8421 6dbd 372e 33bd 0597 71be 689c 2d3d
00000360: ff0d 97bc 1677 1cbe c2c4 91be f46d 943c
00000370: df70 d73d 0d28 b6bb e534 38bc 0225 9cbc
00000380: 94f2 89be 6d8b c23d 4fba 843d 553b 073e
00000390: 011a bcbe 80ee 8a3d cf91 093d 0efc 353c
000003a0: 1528 c3be 7519 573d 907b e83c edd1 153d
000003b0: e86a 103d e030 7f3d cb81 ba3d 1f2a b6ba
000003c0: bff7 a53e 4491 fcbd 7fc6 713c 1313 063d
000003d0: 9e6b 10bc 2c11 8b3d a156 0b3d 6a44 283c
000003e0: d91e 50be 9e76 9e3d 1e6a 5cbe e092 51bd
000003f0: 7dac 6cbb 3040 49be a772 393c f91b 1dbe
0.02733243 -0.123476386 -0.04033422 -0.30408022 0.13312721 -0.039855782 -0.040103167 -0.032066595
0.0029121896 -0.056277223 -0.021673227 0.10466261 -0.08051125 0.011725919 0.04611013 0.08123739
-0.02863151 -0.16101718 -0.031500477 -0.0028847293 0.12723948 0.008599783 0.19610557 -0.2521404
0.2805321 0.016467951 -0.019937342 -0.02919115 -0.0153921265 0.12013816 0.023225307 -0.03178959
-0.25012788 -0.030632913 0.013003955 -0.049526233 0.02812597 0.021696368 0.022208668 -0.102771364
0.26451254 -0.22152984 0.11089212 0.19299056 -0.19568132 0.07850184 0.0760593 -0.18896173
0.03714981 -0.068449266 0.08943474 -0.22647884 -0.16070034 -0.0862844 0.063805975 -0.1503186
0.1562979 0.06665148 -0.34116226 0.09021076 0.027059058 -0.21728423 -0.21597809 -0.039409876
0.10549905 -0.0018499501 0.11719878 -0.16973491 -0.14176552 -0.046396434 -0.09833818 -0.13811491
0.023184897 0.06054678 0.1040569 0.1795516 0.13981807 0.02859202 0.10833098 -0.04034413
-0.020499725 0.0074236672 -0.032915313 -0.15295957 -0.016011681 -0.0340558 -0.284454 -0.003939581
-0.00265261 0.22328939 -0.19475527 -0.0089742765 -0.038581483 -0.11726479 0.07421587 -0.3545795
-0.023101341 0.07172598 0.056046817 -0.0141385775 0.13781641 -0.026757317 0.014028781 -0.21404725
0.11251896 0.067912355 -0.28707328 -0.09242149 0.06975598 -0.06490672 -0.014543967 -0.31362218
-0.14117356 -0.011900193 -0.026382953 0.059486855 -0.1658835 -0.26904225 0.063133374 -0.004435817
-0.008881595 0.054927688 0.08405542 -0.03288848 0.111416124 -0.014699767 -0.025177345 -0.10056627
0.09559423 -0.020777332 -0.16307712 -0.087878324 -0.015186812 -0.025330532 0.02893442 0.014045544
-0.062474944 -0.046290804 0.16179301 -0.020595055 -0.09914968 -0.15972407 -0.18446256 -0.027133517
-0.07614709 -0.041033655 -0.019767163 0.028914075 -0.039933566 0.08624978 0.07515398 0.012179053
0.014982153 -0.08506056 0.09232645 -0.025849849 2.5358126e-05 -0.043154217 0.020519169 -0.06891985
0.107687235 0.0076877833 0.08440553 -0.010560408 0.06836101 -0.045482885 -0.16397537 -0.043663986
-0.037855297 0.15292105 0.006790846 -0.044595305 0.016162543 -0.047417037 -0.041576356 0.05958176
-0.037409205 0.16900948 0.023406824 0.07273771 0.07622955 0.051740963 -0.086946264 -0.089519344
-0.007988321 -0.1331339 -0.008132843 -0.018451424 0.11288248 -0.05932488 0.102090254 0.07623942
-0.052382562 -0.27724874 0.003408982 -0.11450163 -0.08603705 -0.03557324 0.015468557 -0.07301652
-0.00857353 -0.1597105 -0.030542992 0.22466479 -0.047827587 0.109173685 -0.019195797 0.10326049
0.08247023 0.09807267 -0.014069949 -0.17538698 -0.05789329 -0.043745246 -0.23592766 0.04238549
-0.018439291 -0.15279803 -0.28470427 0.018118836 0.10519575 -0.0055589736 -0.01124308 -0.019060615
-0.26942885 0.094992496 0.06480848 0.13206227 -0.3673859 0.067837715 0.03358632 0.011107458
-0.38116518 0.052514512 0.028379232 0.036577154 0.035258204 0.06230247 0.09106787 -0.0013898051
0.32415578 -0.12332395 0.014756798 0.032733034 -0.00881472 0.06790385 0.034018163 0.010270217
-0.20324267 0.07737468 -0.21524855 -0.05116546 -0.0036113553 -0.19653392 0.011318839 -0.15342702

fc2.bias f4 [10]
00000000: a095 a6be b398 a5be 0e70 b3be 76f5 8c3e
00000010: d47c c53e a5d1 9abd a957 eabd ac9f 003e
00000020: adf4 693e 2da3 c43d
-0.3253603 -0.32343063 -0.35046428 0.27531022 0.385718 -0.07559518 -0.11442501 0.1256091
0.22847243 0.09601436
